data.pth (torch, 4991 bytes, 6 tensors)

l1.weight f4 [8, 54]
-0.26857242 0.6056015 -0.21000749 -0.11753026 -0.50923836 0.5231661 -0.12836628 -0.18878461
0.023156894 -0.25971335 -0.19300848 0.32458428 0.16673331 0.299361 0.49065748 0.37971374
-0.23431279 0.5967914 -0.04113563 -0.38823777 -0.064808786 -0.42700478 -0.4274463 0.06853524
0.25208288 -0.031045483 -0.0849775 0.67981863 -0.09927824 0.5923127 0.32917497 0.28916118
-0.22548515 -0.39536473 0.6300888 0.36756214 -0.042492807 -0.034708995 -0.045004677 -0.26121077
0.22960806 0.051165104 0.06576625 0.53417665 -0.08533123 0.6811294 -0.51170105 -0.09388354
-0.2786874 -0.10620832 0.2224682 0.0709345 -0.21913497 0.09353619 -0.011674322 -0.09912398
0.7175214 0.3823757 0.38449728 -0.6262717 0.59683186 0.5418548 0.65230536 0.48008758
0.41573957 0.51811504 0.3461278 0.62620443 -0.06943097 0.28349525 0.2839325 -0.580992
-0.42407575 0.39647663 0.15129335 0.43265843 0.37416056 0.35222548 0.58327025 0.19751066
-0.40331736 -0.3731224 -0.1026247 -0.30341995 -0.5188059 0.45531133 -0.046050858 0.6773027
-0.06306078 0.2656083 -0.20058994 0.8229133 0.4680218 0.45933968 -0.31155846 -0.55832046
0.26460487 0.0065520657 0.73057425 -0.12087532 0.63058615 0.27375188 0.27284834 -0.62127405
0.3368714 -0.35222292 0.48719403 0.2073423 0.26745525 -0.021758081 -0.2735628 0.30252427
0.15207875 -0.14242445 -0.18036568 -0.20438601 -0.5182134 0.0065255966 0.3508948 -0.08419565
-0.23966543 -0.34757426 -0.02526082 -0.0120597035 0.49440548 -0.123060144 0.3273896 0.5605798
0.2068927 0.52600116 0.43030164 0.37922063 -0.08867675 0.24031973 -0.061304588 -0.18746774
-0.030536633 -0.27565208 -0.17445752 -0.3335612 0.18519749 -0.20682742 -0.076592594 -0.1491853
-0.075688645 -0.35382023 -0.18718472 -0.08545234 -0.26131064 0.36636606 -0.10773455 0.018392956
-0.2964355 -0.18482098 -0.007908526 0.24413536 0.28921205 0.036576673 -0.10931409 0.19389917
-0.14092636 0.037285343 0.05523673 0.2862201 -0.3434168 -0.12290082 -0.3223027 0.66309327
-0.2288031 -0.3042466 -0.21051824 -0.36672997 -0.10784309 0.14404872 -0.25192517 0.17648181
0.24541067 0.050681405 -0.27973133 0.56031555 -0.0986073 -0.49465042 0.089580886 -0.41509786
-0.47592697 0.08577888 -0.10117615 -0.11914194 -0.09337313 0.35012904 0.05919408 0.30806428
0.54392207 0.21782982 -0.11107865 -0.21198441 0.29496443 -0.018786928 -0.0005803975 -0.27449545
0.005395499 -0.12585406 0.49918327 -0.06646073 0.09973184 0.2238113 0.11563159 0.39519158
0.281085 0.2848973 -0.052706484 -0.3013177 0.0033342147 -0.1248045 -0.15409674 0.20273387
0.15065587 -0.1263097 -0.24198139 0.19192363 -0.19806981 0.8367518 -0.11781685 -0.38924018
-0.31646937 -0.24683931 0.06738297 0.44359526 -0.2548066 0.3974751 -0.22597922 0.23098136
0.19232911 0.8420567 -0.27439788 0.07067717 0.2267028 0.036202334 0.060435083 0.22996038
0.23315069 0.17337336 -0.23705016 -0.19087403 -0.021154046 -0.29427236 0.43002698 0.33305994
0.05455226 -0.17826599 -0.16086453 0.39680392 0.05067858 -0.24508321 -0.2523261 -0.157458
00000000: 5382 89be b308 1b3f 340c 57be b4b3 f0bd
00000010: 725d 02bf 37ee 053f 7372 03be c150 41be
00000020: 87b3 bd3c 26f9 84be 04a4 45be e92f a63e
00000030: 23bc 2a3e d845 993e 7537 fb3e d769 c23e
00000040: b1ef 6fbe 52c7 183f d67d 28bd 1ac7 c6be
00000050: 78ba 84bd 5fa0 dabe 3eda dabe 345c 8c3d
00000060: 0211 813e 1953 febc af08 aebd 9808 2e3f
00000070: 6452 cbbd cea1 173f 9f89 a83e ef0c 943e
00000080: 94e5 66be 3f6d cabe 804d 213f 1b31 bc3e
00000090: f00c 2ebd 052b 0ebd d356 38bd 6bbd 85be
000000a0: 601e 6b3e 8092 513d 75b0 863d cdbf 083f
000000b0: 24c2 aebd 7f5e 2e3f d7fe 02bf 0346 c0bd
000000c0: 1db0 8ebe bf83 d9bd b4ce 633e 1b46 913d
000000d0: eb64 60be e78f bf3d a845 3fbc 8301 cbbd
000000e0: 7caf 373f bfc6 c33e d4dc c43e 5853 20bf
000000f0: f9c9 183f ffb6 0a3f 7cfd 263f 0ace f53e
00000100: d1db d43e 30a3 043f aa37 b13e ef4e 203f
00000110: d331 8ebd 4a26 913e 9a5f 913e e4bb 14bf
00000120: 7520 d9be fcfe ca3e a5ec 1a3e 6885 dd3e
00000130: f991 bf3e e656 b43e 3351 153f 3c40 4a3e
00000140: 9d7f cebe e609 bfbe e62c d2bd dc59 9bbe
00000150: 77d0 04bf 911e e93e d39f 3cbd b663 2d3f
00000160: 0326 81bd d0fd 873e 7367 4dbe 72aa 523f
00000170: 8ea0 ef3e 922e eb3e 9784 9fbe 17ee 0ebf
00000180: 4a7a 873e b6b2 d63b ea06 3b3f 7b8d f7bd
00000190: 186e 213f 3529 8c3e c7b2 8b3e d10b 1fbf
000001a0: 687a ac3e 9056 b4be 7f71 f93e 8a51 543e
000001b0: e5ef 883e 013e b2bc 6c10 8cbe 76e4 9a3e
000001c0: 88ba 1b3e b7d7 11be c8b1 38be 914a 51be
000001d0: a2a9 04bf acd4 d53b 7ca8 b33e c56e acbd
000001e0: db6a 75be 41f5 b1be c7ef cebc 1096 45bc
000001f0: b722 fd3e f506 fcbd 9c9f a73e 2882 0f3f
00000200: aedb 533e 03a8 063f 7f50 dc3e 3529 c23e
00000210: 289c b5bd 6016 763e 851a 7bbd 8bf7 3fbe
00000220: f627 fabc 4522 8dbe fea4 32be 89c8 aabe
00000230: 69a4 3d3e 91ca 53be 94dc 9cbd 08c4 18be
00000240: a602 9bbd ed27 b5be 5aad 3fbe a301 afbd
00000250: 82ca 85be 5594 bb3e efa3 dcbd d3ac 963c
00000260: 65c6 97be b641 3dbe c392 01bc 9ffe 793e
00000270: 9a13 943e 6cd1 153d 11e0 dfbd 818d 463e
00000280: 004f 10be 84b8 183d e93f 623d 718b 923e
00000290: 54d4 afbe 6db3 fbbd dc04 a5be 7bc0 293f
000002a0: 5c4b 6abe 36c6 9bbe 1892 57be 08c4 bbbe
000002b0: d7dc dcbd 8281 133e 56fc 80be a6b7 343e
000002c0: ef4c 7b3e 4e97 4f3d f238 8fbe d770 0f3f
000002d0: a0f2 c9bd d242 fdbe 2f76 b73d b587 d4be
000002e0: b3ac f3be d6ac af3d 7135 cfbd b000 f4bd
000002f0: 693a bfbd 1d44 b33e 7e75 723d 9aba 9d3e
00000300: 7a3e 0b3f c80e 5f3e 347d e3bd 7112 59be
00000310: 9405 973e 0be7 99bc d125 18ba ab8a 8cbe
00000320: bacc b03b e3df 00be f394 ff3e 901c 88bd
00000330: 3540 cc3d ca2e 653e 41d0 ec3d 8d56 ca3e
00000340: 60ea 8f3e 0fde 913e c1e2 57bd 5046 9abe
00000350: d782 5a3b 8099 ffbd 89cb 1dbe 7899 4f3e
00000360: 8845 1a3e 5457 01be f8c9 77be a187 443e
00000370: d0d2 4abe 5e35 563f f649 f1bd 7d4a c7be
00000380: 4608 a2be 72c3 7cbe 1500 8a3d eb1e e33e
00000390: 0376 82be db81 cb3e 1967 67be 6186 6c3e
000003a0: ecf1 443e 0791 573f e17d 8cbe 31bf 903d
000003b0: c724 683e e648 143d c78a 773d bc7a 6b3e
000003c0: 0ebf 6e3e c988 313e 47bd 72be 7b74 43be
000003d0: 404b adbc deaa 96be 7f2c dc3e d586 aa3e
000003e0: 3172 5f3d 5c8b 36be acb9 24be e229 cb3e
000003f0: 5894 4f3d 18f7 7abe e330 81be ac3c 21be

l1.bias f4 [8]
0.42729676 0.6262195 0.6826909 0.60450286 0.7443049 0.43730655 0.63022995 0.7914196
00000000: a4c6 da3e ec4f 203f d5c4 2e3f b3c0 1a3f
00000010: c48a 3e3f a5e6 df3e c056 213f 7a9a 4a3f

l2.weight f4 [8, 8]
-0.89905113 1.474441 0.46695986 -0.63736457 0.7161593 -0.3940374 0.33602887 0.6922357
0.29494062 0.07024962 -0.23886886 0.63746256 1.1546518 0.11795301 -0.36315086 -0.44226342
0.34373674 -0.8325116 0.58754945 0.9222131 0.8365937 0.5008467 -0.5403535 0.3527635
0.8605065 0.74450886 -0.6499588 0.45109522 0.004489963 0.34111792 0.8149939 -0.4366294
-1.0278801 0.8164889 0.7820172 -0.2987806 0.19709942 1.3121723 -0.5342442 0.40582305
0.0781964 0.59116125 -0.43539086 0.8070437 1.0748236 0.38159716 -0.030395886 -0.81601036
0.16753033 0.5696699 -0.5191949 -0.8744312 -0.9089919 0.95110184 -0.48586282 0.5336964
0.9776369 0.02873769 0.2917981 0.9882977 0.69343626 -1.09809 1.1910685 1.1709983
00000000: 3728 66bf 7cba bc3f 5d15 ef3e 532a 23bf
00000010: 3756 373f 45bf c9be fa0b ac3e 5c36 313f
00000020: 7502 973e 08df 8f3d 0a9a 74be bf30 233f
00000030: a1cb 933f 5991 f13d e9ee b9be 5a70 e2be
00000040: 43fe af3e 7b1f 55bf a469 163f 2816 6c3f
00000050: 012b 563f 7d37 003f 9b54 0abf 6b9d b43e
00000060: 274a 5c3f 2298 3e3f b363 26bf f4f5 e63e
00000070: 8a20 933b 02a7 ae3e 71a3 503f e48d dfbe
00000080: 9391 83bf 6b05 513f 4732 483f c5f9 98be
00000090: 6ed4 493e 43f5 a73f 3ac4 08bf 0ac8 cf3e
000000a0: 6f25 a03d 5856 173f 8deb debe 6a9a 4e3f
000000b0: d293 893f b460 c33e cb00 f9bc 0ee6 50bf
000000c0: 128d 2b3e e3d5 113f f5e9 04bf b9da 5fbf
000000d0: b1b3 68bf 697b 733f 03c3 f8be 54a0 083f
000000e0: 6946 7a3f 4e6b eb3c 9066 953e 1401 7d3f
000000f0: 0a85 313f 378e 8cbf ef74 983f 46e3 953f

l2.bias f4 [8]
0.43838397 0.14931004 0.68208706 -0.369443 0.5072475 0.0264725 0.4554037 0.3715946
00000000: dd73 e03e bbe4 183e 429d 2e3f a227 bdbe
00000010: f9da 013f dbdc d83c ac2a e93e a641 be3e

l3.weight f4 [7, 8]
0.103385456 0.48708418 -1.1994075 0.5643625 -1.2599287 0.66739875 -0.3568828 -0.17359889
-0.95416707 -1.2892513 -0.046942636 0.48164615 -0.96613294 -1.3564445 -0.66835463 0.7034828
-0.46029535 0.5810315 0.6557203 -0.8123955 -1.438014 0.22673471 -0.61558163 0.35855556
0.7582607 -1.2687627 -0.27551436 -1.1714215 0.0026346804 -1.0965798 -0.750367 0.49100518
-0.8174013 -0.84339345 0.6227522 -0.98528755 0.48742083 -1.1645696 0.59360844 -1.1951756
0.4989236 -0.7626753 -1.4376138 -0.095957346 0.35188386 -0.28948295 0.60629606 -0.84408474
-0.07997259 0.54326355 0.2991445 -0.08953675 0.31202248 0.64269906 -1.1992663 -1.1124398
00000000: c1bb d33d 1963 f93e 2f86 99bf 107a 103f
00000010: 5845 a1bf a5da 2a3f 58b9 b6be e8c3 31be
00000020: 4b44 74bf 3006 a5bf ec46 40bd 539a f63e
00000030: 7d54 77bf f99f adbf 4a19 2bbf 7317 343f
00000040: d5ab ebbe 7bbe 143f 49dd 273f 27f9 4fbf
00000050: d810 b8bf 252d 683e c296 1dbf 9894 b73e
00000060: 601d 423f d166 a2bf 3810 8dbe 24f1 95bf
00000070: 9aaa 2c3b ba5c 8cbf 0d18 40bf 0865 fb3e
00000080: 3641 51bf a2e8 57bf b06c 1f3f ce3b 7cbf
00000090: 398f f93e 9e10 95bf b9f6 173f 84fb 98bf
000000a0: ea72 ff3e b03e 43bf bb03 b8bf 4985 c4bd
000000b0: 1f2a b43e 1c37 94be 3836 1b3f f015 58bf
000000c0: abc8 a3bd 5213 0b3f 7829 993e 0b5f b7bd
000000d0: 69c1 9f3e ed87 243f 8f81 99bf 6d64 8ebf

l3.bias f4 [7]
-0.502167 -0.24717468 -0.20598182 0.19873585 0.3071528 -0.38372162 0.20688571
00000000: 048e 00bf 5c1b 7dbe e6ec 52be 6981 4b3e
00000010: 2243 9d3e 2977 c4be d9d9 533e
